lightning_logs/version_1/checkpoints/epoch=29-step=30.ckpt (torch, 877208 bytes, 427 tensors)

model.prescalers.time_varying_feature.weight f4 [16, 1]
00000000: f599 06bf 613a 183c 6e03 39bf 1b00 81be
00000010: 781a de3d d5df f9be f551 0c3f 0ce8 163f
00000020: 89f4 8abe 9b88 2f3e 3baf 673d d7fc 15bd
00000030: 903e d7be 6ec3 14bf 46b9 353e 15ff 183f
-0.5257867 0.009291262 -0.7227086 -0.25195393 0.10844892 -0.48803583 0.54812557 0.58947825
-0.2713969 0.17141955 0.056563597 -0.03661808 -0.4203992 -0.581107 0.17746457 0.59764224

model.prescalers.time_varying_feature.bias f4 [16]
00000000: aa0f 783f a2f9 393f 4578 543f 020f 8dbf
00000010: 1cbb 9dbe 3a1a 06bf f612 8d3f 517e 4a3f
00000020: cf38 833f 08c5 ab3e 5b04 5abf 7100 d7bd
00000030: 6b4f 6d3f ccf0 873f e413 38bf 2437 833f
0.968989 0.72646534 0.82996017 -1.1020205 -0.30806816 -0.5238377 1.1021411 0.79098994
1.0251712 0.3354876 -0.85162896 -0.10498131 0.9269931 1.062036 -0.7190535 1.0251203

model.prescalers.target.weight f4 [16, 1]
00000000: 33dc 033f 82ab 55bf 34cb 22bf 6c6c 38bf
00000010: 89b5 0d3f 6830 fbbe b79e 30bf 1437 76be
00000020: cfd0 683e 8c58 e23e 29f5 03be 3f2d 15bf
00000030: ee55 62be 47ed 533e 96bb 2fbf e511 c83c
0.5150787 -0.83464825 -0.63591313 -0.7204044 0.55355126 -0.4906037 -0.6899218 -0.24044448
0.22735904 0.4420818 -0.1288649 -0.58272165 -0.22103092 0.20695983 -0.6864561 0.024422595

model.prescalers.target.bias f4 [16]
00000000: 1b19 573f 742a 7bbf a663 02bf 2ea1 fd3a
00000010: 0a12 333f 5f6d 363d 20f8 a73d 76e0 4fbf
00000020: 327a 153d 57e9 c6be f1a0 09be c914 90be
00000030: de12 27bf 49f2 f3be aaf0 bb3c 49ab d8be
0.8402268 -0.98111653 -0.509333 0.0019350403 0.699494 0.0445379 0.08201623 -0.81201875
0.036493488 -0.388499 -0.134403 -0.28140858 -0.65263164 -0.47645786 0.022941906 -0.4231818

model.encoder_variable_selection.flattened_grn.resample_norm.mask f4 [2]
00000000: 6cf7 6738 b53f 49b8
5.530512e-05 -4.7981466e-05

model.encoder_variable_selection.flattened_grn.resample_norm.norm.weight f4 [2]
00000000: 776d 963f 446c 963f
1.1752156 1.175179

model.encoder_variable_selection.flattened_grn.resample_norm.norm.bias f4 [2]
00000000: a66b 333e 2b62 33be
0.17521533 -0.17517917

model.encoder_variable_selection.flattened_grn.fc1.weight f4 [2, 32]
00000000: 3cf3 8cbe 7497 f9be 3b1d 23bf 1266 39bd
00000010: 8fbc f5bb 20fa d83d 9e39 de3e 3800 253f
00000020: 0a3a 9dbe 69dd bbbd b8db 00be 80a8 b4be
00000030: 43f0 4d3e e579 be3e 07c1 273e be9d 163d
00000040: 10b2 c8bd 759f ebbd 1eba 773e 3a4f 72bd
00000050: bb4c a1be 161c fa3e 2910 673e 83cd b0bc
00000060: 6b4b b9be b78e 3e3d 5bb5 5f3e d6a6 cb3d
00000070: a844 063f 5694 70be 8fe4 31be b516 143e
00000080: 2049 f83d 1699 5e3e 68f0 bf3c fe6a 00bf
00000090: 6a15 0abf 5f24 933e efdf 903e a5ac 43be
000000a0: 827d 6b3e 5107 2abf 88bb d23d 10a2 c43d
000000b0: 4498 0d3f ec5d ee3e 62cc 3e3e f53e c5bd
000000c0: dde1 d5be 0f81 20be b66f 55be b013 c9bc
000000d0: 449b 133f 315c 483d ab6c a8be 7e8b 47bf
000000e0: 61a6 483e 596d 583f f80c d5bc ff2a b7be
000000f0: 6d7e 3abf f9b7 94bc f8dc 3bbe dbcb 71be
-0.27529323 -0.48748362 -0.6371648 -0.045263357 -0.0074992846 0.105945826 0.43403333 0.6445346
-0.30708343 -0.0917309 -0.12583816 -0.35284805 0.20111184 0.37202373 0.16382228 0.03677153
-0.09799588 -0.115050234 0.24192092 -0.059157588 -0.31503853 0.48849553 0.22564758 -0.02158237
-0.36190352 0.046522822 0.21846525 0.09943931 0.5244851 -0.23494086 -0.17372344 0.14461787
0.121233225 0.21738085 0.023430064 -0.5016326 -0.53938925 0.28738686 0.28295848 -0.19108827
0.22997096 -0.66417414 0.10289675 0.096012235 0.55310464 0.46556032 0.18632653 -0.09631149
-0.41773883 -0.15674232 -0.20843396 -0.02454552 0.5765879 0.048916046 -0.32895407 -0.77947223
0.19594719 0.8454185 -0.02600716 -0.3577499 -0.7284916 -0.018154131 -0.18346012 -0.23612921

model.encoder_variable_selection.flattened_grn.fc1.bias f4 [2]
00000000: eb06 47be de55 363e
-0.19436233 0.17806193

model.encoder_variable_selection.flattened_grn.context.weight f4 [2, 32]
00000000: fdca c23e 27ff cbbe 3334 d13e 649e b13b
00000010: 5f90 a4be 6e6d 183f 0a01 0d3e ff23 f9be
00000020: cb63 c83e 1bb3 b03e bdba 393e 7ee8 8bbd
00000030: 41fb debe 697c 20be 9dba 9f3e f96f 96be
00000040: 112b 08bf 9b23 d43e 5ad8 afbe 002b 683e
00000050: 7547 89bd 0b52 52be 103a cabe d2d2 733e
00000060: dc12 003f 6e7a 10bf 31f7 b2be f373 183f
00000070: fe8d 983e 6f0d 613e 7756 6e3e e60b 0c3e
00000080: f0cb f6be a031 3d3e 9384 8f3e 4764 fcbe
00000090: cf94 e33e c12e d4be 43a7 eabe e145 3b3e
000000a0: b514 cbbe 2764 fd3d d23f 0ebf fe17 a83d
000000b0: 6d01 103f ed90 023f 95a6 2a3e 8654 1b3f
000000c0: 99fc 0bbe a3f6 7fbe ebb3 603d 87e2 c0be
000000d0: 7f5b b23e 7f4a 8e3e 1ee5 973e 4f79 603d
000000e0: d8d1 2c3e 2ba5 8b3e 6422 d43e 6c89 b33c
000000f0: 0641 383e 2497 0abf 62e7 82be 4e55 40bd
0.38045493 -0.39843103 0.40860137 0.005420493 -0.32141396 0.59541976 0.13769928 -0.48660275
0.39138636 0.34511647 0.18137641 -0.06831454 -0.43551067 -0.15672459 0.31197062 -0.29382303
-0.53190714 0.41433415 -0.3434475 0.22672653 -0.067030825 -0.2053911 -0.39497423 0.2381089
0.5002878 -0.5643681 -0.34954217 0.59551924 0.2979583 0.21977781 0.23275171 0.13676414
-0.48202467 0.18475962 0.28030834 -0.49295256 0.4444947 -0.4144192 -0.45830736 0.18288375
-0.39664236 0.12372618 -0.5556613 0.08207701 0.56252176 0.5100239 0.16665109 0.6067585
-0.13670577 -0.24996428 0.054859083 -0.37672827 0.3483543 0.2779121 0.2966699 0.05480319
0.16876924 0.2727445 0.41432488 0.021916114 0.17993554 -0.5413687 -0.25567156 -0.046956353

model.encoder_variable_selection.flattened_grn.fc2.weight f4 [2, 2]
00000000: 34f8 b03e 613c 29bf 5b97 3e3f 00c0 07bf
0.34564364 -0.66107756 0.744497 -0.53027344

model.encoder_variable_selection.flattened_grn.fc2.bias f4 [2]
00000000: 32df 35be 1c05 f8bd
-0.17760924 -0.121103495

model.encoder_variable_selection.flattened_grn.gate_norm.glu.fc.weight f4 [4, 2]
00000000: 46d7 5abe ef23 713f f006 b93d bf42 2dbf
00000010: 8031 163f df1b 56bf 353d 5fbf 7f77 473e
-0.21371183 0.94195455 0.09034526 -0.6767997 0.5866928 -0.8363628 -0.8720277 0.19479178

model.encoder_variable_selection.flattened_grn.gate_norm.glu.fc.bias f4 [4]
00000000: 8063 363e 459d 6bbd 8c55 debd b47b a5bd
0.17811394 -0.05752303 -0.108561605 -0.08080235

model.encoder_variable_selection.flattened_grn.gate_norm.add_norm.norm.weight f4 [2]
00000000: f464 713f f364 713f
0.9429467 0.9429466

model.encoder_variable_selection.flattened_grn.gate_norm.add_norm.norm.bias f4 [2]
00000000: 474d f73b 474d f7bb
0.007547054 -0.007547054

model.encoder_variable_selection.single_variable_grns.time_varying_feature.resample_norm.mask f4 [32]
00000000: 520a 33be 2dbb 213e fc75 6bbe 07a9 283e
00000010: a4d6 bbbd 9ebb 233e 12bc 4c3d ffe7 393e
00000020: 359d 63be 2b45 9ebc 7a95 5f3e ede0 29be
00000030: f50c 36be 5060 273e d427 10be 0e49 22be
00000040: e1cb 26be 63d2 f53d fd62 303e 2f9d 07be
00000050: d74d 35be e6f2 7b3d 5856 0b3e 11b2 373e
00000060: 89b0 163e d888 883d 06f8 46be 89de 353e
00000070: e904 49be a305 533e d650 5abe c638 113e
-0.17484406 0.15794058 -0.22994226 0.16470729 -0.09171799 0.15989539 0.049984045 0.18154906
-0.22227938 -0.019320091 0.21834365 -0.16589709 -0.1777838 0.16345334 -0.14077693 -0.1584818
-0.16288711 0.12003019 0.17225261 -0.13243555 -0.17705475 0.061510943 0.13607156 0.1793902
0.1471578 0.06666726 -0.19430551 0.17760672 -0.1963078 0.20607619 -0.21319899 0.14181814

model.encoder_variable_selection.single_variable_grns.time_varying_feature.resample_norm.norm.weight f4 [32]
00000000: 2b31 533f 0a14 943f 6344 453f 6217 953f
00000010: fe7e 6f3f 9a24 913f bb0d 6b3f 7865 973f
00000020: 843c 483f 7656 873f d183 8b3f 5899 953f
00000030: cd1e 533f a685 943f 6344 5a3f 01de 563f
00000040: cce6 4f3f eec3 8d3f 4b16 963f 244f 923f
00000050: ca6f 523f 9ab7 553f bf99 903f 6b94 953f
00000060: 74a0 593f d32a 863f 405e 4e3f d1ee 963f
00000070: 06d2 4b3f b792 9a3f ed25 933f 930a 913f
0.824969 1.1568615 0.77057475 1.1647761 0.9355315 1.1339295 0.91817826 1.1827841
0.7821734 1.0573261 1.0899602 1.1687422 0.82468873 1.1603286 0.852606 0.839325
0.81211543 1.1075418 1.1725553 1.1430402 0.82201827 0.8348328 1.129692 1.1685919
0.8501046 1.0481819 0.80612564 1.1791631 0.79617345 1.2076024 1.1495949 1.1331352

model.encoder_variable_selection.single_variable_grns.time_varying_feature.resample_norm.norm.bias f4 [32]
00000000: 5731 32be ba1c 263e f7be 6abe 5867 293e
00000010: feae 06be 3fb6 8e3e 2953 af3d f317 3bbe
00000020: 0a9f 573e efbd ca3b a223 fb3c 0a77 2cbe
00000030: 0117 41be a055 2a3e 6ced 06be bd8a 20be
00000040: c01a 3abe 71cb 123e 90a6 303e c94b 19be
00000050: a128 363e b18f 253c 4ef1 01be 350b 21be
00000060: dfe8 343e 4365 4a3e 3444 48be 8d15 333e
00000070: 4b49 4f3e b329 57be 0b34 39be a6a8 0f3e
-0.17401634 0.16221896 -0.2292441 0.16543329 -0.13152692 0.27873418 0.085607834 -0.18270855
0.21056762 0.0061871926 0.03065664 -0.16842285 -0.18856432 0.16634226 -0.13176507 -0.15677924
-0.18174267 0.14335419 0.17251039 -0.14970316 0.17788936 0.0101050595 -0.12689707 -0.15726931
0.17666958 0.19765191 -0.19557267 0.1748869 0.20242803 -0.21012 -0.18086259 0.14029178

model.encoder_variable_selection.single_variable_grns.time_varying_feature.fc1.weight f4 [16, 16]
00000000: 3baa 303f 32de 88bf 860f c43c 497f 103f
00000010: 6cd4 823e 87e8 043f 9537 183e 3331 c4be
00000020: c6f0 0ebd 1862 60be 988b f13e 8b0d 5f3e
00000030: 5423 4dbe f367 373d c36a 4f3d 5caa 82bd
00000040: b75a fa3e ccda 783e 9831 893d af1a d53d
00000050: 15e1 75bd 87fc 22bf 5d33 553d 1a15 033f
00000060: b751 1a3f a166 1b3d f74a d3be 596d df3e
00000070: 887d f73d 6fc6 103f a711 a4bd 73d1 703e
00000080: 9f5d 563f adb8 8fbe 9cb8 3b3f bc28 5ebf
00000090: 9bf4 cc3e d019 00bf d16d 9b3e 1ddf 143f
000000a0: df99 a93e e593 1d3c e7e0 7fbf 9359 ef3d
000000b0: cfd5 51be 3753 cc3e 01b5 53bd 16b4 94be
000000c0: 072b f53d 23cc 30bd 8c88 083f bcb5 b0be
000000d0: d170 acbe c69e 02bf a50c 05bc 2ec9 c8bb
000000e0: 2cc8 713e c0ad 87be c832 3abe 01d0 88be
000000f0: 5b6d 803d 317b 2a3e c233 2dbe f423 f4be
00000100: ec5a 273e 1c15 b93d fed3 7c3e c068 02bd
00000110: 93c8 e73d 5ca8 273e c0ac b03e e8a7 c23e
00000120: 392b 13bd 2497 c6be 4868 9abe a6f0 a9bd
00000130: a2a9 10be 89c7 be3e de89 cebd 8d74 cbbe
00000140: 75e2 77bf ca7f 203d 7a59 cdbe bb00 72bd
00000150: 872a 08be a3a3 8dbd 356f a3be da1b edbe
00000160: 1b79 3f3e 1992 9c3d 024e 403e 4917 35be
00000170: a034 80be 0e0a 193e 3806 8dbe 682a e2be
00000180: 7778 973d ff73 2fbd 7338 393d 1306 593e
00000190: 0482 dc3d 6baf 863e 1719 b3be 40d0 ba3e
000001a0: 5680 a0be 77bd 58bf 3fd1 f83e 0a45 b53e
000001b0: 0a6c 093e a46a ad3d 5eef d7bc 42e9 9ebb
000001c0: 1f09 d13e 4905 ccbe 532f 823e b8de 953e
000001d0: cddb 493d 5e81 95bd ba66 0bbf a8c1 2bbf
000001e0: 5213 013d baae 18bf ffab 80be 0078 a63e
000001f0: 2241 b63d da7d dcbe d3d7 26be 8953 e2bd
00000200: 92fa b0bd ef06 ccbe f839 85be 5161 5bbf
00000210: 822b 863e d37a 573c 807f fa3d 06c1 3e3e
00000220: 476c b03e 2f8f 98be 295f e9bc db96 f9be
00000230: 827b aebe bdf0 d3bd 19ee 08bf 4b28 363e
00000240: 30ae 833d 3ccb 0cbe 63ec 6b3e a6bb dfbe
00000250: 0dcb 533d b51b 9ebe 2b14 0bbf e2ed 133e
00000260: 4805 013f 1e52 133f 76de 48be 31a9 65bf
00000270: a837 c93e 9718 e8bd 4f0b 7fbd a321 b5bd
00000280: 5aea 0d3f db09 7d3e edb6 213f 9c65 03be
00000290: e291 92be fe98 1cbf 6bcc f13d dc93 4f3e
000002a0: a3f1 333f 01f7 0fbe a531 15bf 4018 cbbd
000002b0: e760 ce3e 6a5b 803f e26a 2b3e 265d 40be
000002c0: c7ea 7c3e f4a3 8cbe 969b 4abe 85a4 c83e
000002d0: 7592 debd e1b9 843f f603 d1be 1825 cabe
000002e0: 8610 0dbf 2205 b4be f7b1 243e c964 1e3d
000002f0: 5f63 e43d 1d03 24bf ce3c 843e 55a0 9dbe
00000300: 9fbe 21be d84b 2fbf e6b4 29bf b9fd 25be
00000310: 8b4e a9be f543 a5be d275 0bbf 50a0 8abe
00000320: ea18 93be a21c 35bf 5fb8 753d f0fa 2f3e
00000330: 1b52 29bf 8c0b 49bd bb7d 87be 52bb 3fbe
00000340: e302 29be 185b c33e 674b aabe caf6 073f
00000350: ce22 1cbf 6714 033f d9db 8abe 3547 363e
00000360: 7e17 b03e 9a88 1a3d cb22 f93e 352c 04be
00000370: d7c6 87be a1ba d3be 164c c5bd 6eab bebe
00000380: 81f2 233d 454b 93be 0e7c ffbd 1cdc 143f
00000390: 9223 07bf 9027 453e 0176 cb3c e02b 6d3e
000003a0: 369e fcbe ed11 13bf 7caf 423f 9482 e83e
000003b0: b87a cabe fda8 92be 948e aa3c a6b1 2cbd
000003c0: 8367 ed3e abd7 1c3f f93a eb3e d6ae 20bf
000003d0: 7369 d93d 0ee4 39bf bd56 be3e fbe3 b73e
000003e0: ff8d 193f 80da 42be 60e1 843e 5ed9 76bd
000003f0: 4512 673e 78e8 09bf 4711 d53d 7b49 563e
0.6900975 -1.0692809 0.023933183 0.5644422 0.2555269 0.5191731 0.14864953 -0.38318786
-0.03489759 -0.2191242 0.47176814 0.2178251 -0.20033008 0.044776868 0.050638925 -0.0638015
0.48897335 0.24302214 0.066989124 0.1040548 -0.060029108 -0.63666576 0.052050937 0.51204073
0.60280937 0.03793967 -0.4126813 0.43638113 0.1208449 0.56552786 -0.080111794 0.23517399
0.83736604 -0.28070584 0.73328567 -0.86780906 0.4003037 -0.50039387 0.3035722 0.58152944
0.33125207 0.00961778 -0.9995255 0.11687007 -0.20491718 0.39907238 -0.05168629 -0.29043645
0.119710974 -0.04316343 0.53333354 -0.34513652 -0.33679822 -0.5102352 -0.0081206905 -0.006127498
0.23611516 -0.26499748 -0.18183434 -0.26721194 0.06270858 0.16648556 -0.16914275 -0.4768368
0.16343278 0.090372294 0.24690244 -0.03183818 0.11317553 0.16372818 0.34506798 0.38018727
-0.035929892 -0.38787186 -0.30157685 -0.08297853 -0.1412721 0.37261608 -0.1008489 -0.3973736
-0.9682992 0.03918437 -0.40107328 -0.059082728 -0.13297473 -0.06915977 -0.31920782 -0.46310312
0.18698542 0.076450534 0.18779758 -0.17684664 -0.2504015 0.14945242 -0.27543807 -0.44172978
0.07396024 -0.042835232 0.04521985 0.21193723 0.10766986 0.26305708 -0.3498008 0.36487007
-0.31347913 -0.846641 0.48597142 0.35404235 0.1342012 0.08467606 -0.026359256 -0.004849584
0.4082727 -0.39847782 0.2542673 0.29271483 0.049281884 -0.073000655 -0.54453623 -0.6709237
0.031512566 -0.5964161 -0.25131223 0.32513428 0.08899142 -0.43064767 -0.16293268 -0.11051089
-0.086415425 -0.3984904 -0.2602079 -0.8569537 0.2620507 0.013151842 0.1223135 0.1862832
0.3445761 -0.2979674 -0.028487759 -0.48747906 -0.34078604 -0.103486516 -0.5348831 0.17788808
0.06429708 -0.13749403 0.23039393 -0.43697852 0.051707316 -0.30880514 -0.5432765 0.14446214
0.50398684 0.57547176 -0.19616112 -0.8971129 0.39300275 -0.11332815 -0.062266644 -0.08844306
0.5543572 0.24710791 0.6316975 -0.1283173 -0.28626925 -0.6117095 0.11806568 0.20271248
0.70290583 -0.14059068 -0.58278877 -0.09916735 0.40308306 1.0027897 0.16739991 -0.18785533
0.24698935 -0.27468836 -0.19785914 0.39188018 -0.10867778 1.0369226 -0.40823334 -0.39481425
-0.5510334 -0.35160166 0.16083513 0.038670335 0.11151766 -0.6406725 0.2582764 -0.30786386
-0.15795372 -0.68475103 -0.66291654 -0.16210069 -0.33067736 -0.3227841 -0.54476655 -0.27075434
-0.28729945 -0.70746815 0.059990283 0.17185569 -0.6614091 -0.049083278 -0.26463112 -0.18723801
-0.16505007 0.38155437 -0.33260652 0.53110945 -0.6099061 0.51203007 -0.27120855 0.17800601
0.34392923 0.03772793 0.48659357 -0.12907489 -0.2651889 -0.41353324 -0.09633653 -0.37240165
0.04002619 -0.28768364 -0.124748334 0.5814836 -0.5278865 0.19253373 0.024836542 0.23161268
-0.49339455 -0.5744923 0.7604902 0.45412123 -0.39546752 -0.28644553 0.02081994 -0.042161606
0.46368036 0.61266583 0.4594343 -0.6276678 0.10615816 -0.7261361 0.3717555 0.35916123
0.59982294 -0.19028664 0.25953197 -0.06026589 0.22565563 -0.53870344 0.10403686 0.20926468

model.encoder_variable_selection.single_variable_grns.time_varying_feature.fc1.bias f4 [16]
00000000: 7434 54be ec56 293e 6c9a 5a3e f965 acbc
00000010: d85b 123e 8f32 53be 2bcb 49be d2dc 33be
00000020: 72d9 1b3d 8cb0 533e 2451 7c3e 8c00 1bbe
00000030: 32b6 3ebe 325e e3bd 3464 2fbe 01ea 683e
-0.20723134 0.16537064 0.2134797 -0.021044718 0.14292848 -0.20624755 -0.19706409 -0.17564705
0.03804917 0.20672816 0.24640328 -0.15136927 -0.1862419 -0.11101951 -0.17128068 0.22745515

model.encoder_variable_selection.single_variable_grns.time_varying_feature.fc2.weight f4 [16, 16]
00000000: d697 ab3d fc78 2ebe 2ba6 ce3d 94d6 db3e
00000010: aac7 823e 828e d83e 5d10 07bf 8874 1d3e
00000020: 9d89 b2be dbde 27bf f7d8 2b3d 4ac1 0bbf
00000030: 9efc be3e 0e54 09bf 0068 9ebd ef88 e1be
00000040: 7a65 6c3e 5969 9cba b504 123f 63c6 d13e
00000050: 8215 2d3f 4821 ac3e 3851 613f fa4e 863e
00000060: dec1 ef3c 1f4a 833d 669b 0d3f 956e 42be
00000070: 8bd5 fdbe 98c8 fcbd a254 18bf b3cd 063e
00000080: 4002 103f d4d1 16bf 5aec 693d 079d 683e
00000090: f021 633e 1ccc f0be 8e01 e5be 7e86 583f
000000a0: 07c0 06be 24c1 333f 3f54 e43d 32b3 073f
000000b0: a68b 16bf 815b e33e 9a34 673e 0b1a 1dbe
000000c0: 1925 863c 8eb2 873e 6f1f 333e f6b0 06bd
000000d0: 2417 7e3f f23c 44be 5fb1 6e3d 1fe2 dbbd
000000e0: d712 78bc b219 d3be 13b3 8c3e 40d2 c2be
000000f0: 5b95 65be 6688 1abf d12d 61bf 7f8c 82be
00000100: 9d56 a83e a0f1 0cbf 734d 2b3b 95d5 cbbc
00000110: 95dc b83e 1291 0dbf 3196 b93e 93e0 fcbd
00000120: e198 9abd f9fc 153f 9785 b8bd 5c0c 813e
00000130: 8090 af3e dbf5 bb3d 0482 fdbd 429d 09bf
00000140: 40d1 52be 7628 21bf 2e0d 183e d6c2 acbe
00000150: af27 0a3f f60a 48bf 2e3d 3fbe 8cbd 86be
00000160: a514 ecbe 6b8f 383e 11d1 e73d 1aa5 e23d
00000170: 08b8 afbd 66a8 abbe 3260 83be a8e3 68be
00000180: e5a9 013f bc6a cabe cd5f 2bbf 124f d6be
00000190: 4e62 5bbe bd71 19be 4be4 acbe fae3 9abd
000001a0: d564 babd 532c d0be 51f2 dabe fd43 843f
000001b0: f96b 983e 8de7 083e 81be de3c b615 37bd
000001c0: 052a a2be 9eba 0b3f 5c14 21bd 58b2 0cbe
000001d0: 64e3 f13e ba7e a43e ae66 06bd 79b3 0abe
000001e0: c6fe 61be 8d4b fa3d e71a eb3e c7f5 96be
000001f0: a334 f43d 758a d43d 8021 33bf 6b36 0b3e
00000200: 6656 d33e 9aaf 8dbe 2749 633e 5563 c13e
00000210: df77 b03e a5a0 b0bd 1291 b6be 4ba3 14be
00000220: be41 32bd 4c65 7b3e f1f3 91bd 3471 623e
00000230: 395f c13e 37f5 983e e4f3 bf3e 3db1 a5be
00000240: b7d3 38bd e691 103f 7bb4 0e3f 4cb6 043f
00000250: 84cf 163f 5b62 3d3f 1137 e9be 08a1 02bf
00000260: 46fe aebe 8152 49bf 75c8 693e 2ede eebe
00000270: 3edf 2bbf a997 28bf f5da 793c ab1c 613e
00000280: bd4f 153f 1d31 5d3e b9b4 d73e 71d7 123f
00000290: 0419 453d 8210 b03d 09a0 43bf e5c4 16be
000002a0: dfac 083e c30e febc d908 1f3e 26d3 06be
000002b0: 7064 49bf ca3c d23e 2101 4b3e 3143 3b3f
000002c0: a062 f9be 1722 c4bd 5801 193f 6d4d c13e
000002d0: b2b9 02be 2426 a0be 7190 bcbe 4475 a93e
000002e0: 5091 91be 6108 0cbe c11d 6b3f 10b1 923e
000002f0: 3a96 0f3f 3252 f5bd 8311 24bc 9a98 8fbe
00000300: 1366 6a3e 9f1f 7d3e ebc2 76be f832 42bd
00000310: daba 483e 257a b63e c244 2fbe 6f50 1bbe
00000320: 6b58 e6be 8781 ab3d 2618 efbd 19db 9cbe
00000330: b392 d23e 8273 8a3e db80 f53e e803 d8be
00000340: dbb3 ef3e ed8f 263d d93b 393e a530 e83e
00000350: 50e0 033e 92ab 033f fa8f 0abf 38cd 633e
00000360: 8aa5 a0be cbc9 ad3e f41c dfbd 2496 0f3e
00000370: 4b24 20bf 99d1 00bf 03aa b73c fe1f f2bd
00000380: 78d4 04bf bd45 81bf e6e9 b2bb f31a 3fbd
00000390: eee7 febe 400e ea3e 9e52 00be 3a04 d0be
000003a0: 6ecd 96be 5f93 6abe ed60 c5be 887d 233f
000003b0: 8ec9 803e 9840 8bbb ccb1 333f 0ae0 9bbe
000003c0: 0ad5 ffbe fc51 e7bc 0135 3c3f 60c2 413e
000003d0: fc4b 6cbd d367 4dbb 3301 ad3e 2dca 32bf
000003e0: 997b 2c3f 65c4 d9be 1dae 77bd 5b0a 353d
000003f0: 0c6c 93be 5510 e7be 60d0 37be 6a7c 0a3f
0.0837857 -0.1703834 0.10090288 0.42937148 0.25542957 0.42296225 -0.52759343 0.15376484
-0.34870616 -0.65574425 0.04195496 -0.5459181 0.37302107 -0.5364388 -0.0773468 -0.44049785
0.23085585 -0.0011933252 0.5703843 0.4097167 0.67610943 0.33619142 0.88014555 0.2623213
0.029267248 0.06410622 0.55315244 -0.18987496 -0.49576983 -0.12342948 -0.5950414 0.13164406
0.56253433 -0.5891392 0.057110168 0.22716151 0.22180915 -0.47030723 -0.4472775 0.8458022
-0.1315919 0.70216584 0.11148881 0.53007805 -0.58806837 0.4440575 0.2257866 -0.15341966
0.016375111 0.26503414 0.1749246 -0.032883607 0.9925406 -0.19163874 0.058274623 -0.107364886
-0.0151412105 -0.4123054 0.27480373 -0.38051033 -0.22420256 -0.6036438 -0.87960535 -0.25497815
0.3287858 -0.5505619 0.0026138693 -0.024882117 0.3610579 -0.55299485 0.362474 -0.12347522
-0.075486906 0.5858913 -0.09009855 0.25204742 0.34289932 0.091777526 -0.12378314 -0.5375558
-0.20587635 -0.62952363 0.14848778 -0.33742398 0.539668 -0.78141725 -0.18675682 -0.26316488
-0.461095 0.1802346 0.11319173 0.11066647 -0.08580023 -0.33526915 -0.2565933 -0.22743094
0.50649863 -0.39534557 -0.66943055 -0.418572 -0.21424219 -0.14984794 -0.33767924 -0.07563014
-0.091012634 -0.40658817 -0.42762998 1.0333248 0.29769877 0.1336958 0.027190449 -0.04469844
-0.31672683 0.5458163 -0.039326057 -0.13739908 0.47243798 0.32127935 -0.032812767 -0.13545026
-0.22069845 0.122214414 0.45918962 -0.29484388 0.11924102 0.10377971 -0.6997299 0.13594978
0.41276854 -0.27673036 0.22195874 0.37771097 0.34466454 -0.086243905 -0.35657555 -0.14515416
-0.043519728 0.2455036 -0.07126606 0.22113496 0.37767962 0.29874584 0.3749076 -0.32361785
-0.045123782 0.56472623 0.5574414 0.5184066 0.58910394 0.73978204 -0.45549825 -0.51026964
-0.3417837 -0.78641516 0.22830375 -0.46653885 -0.67137516 -0.65856415 0.015249957 0.21983592
0.58324796 0.21600766 0.42130068 0.5735999 0.04811956 0.085968986 -0.7641607 -0.14723547
0.13347195 -0.031012898 0.15530719 -0.13166484 -0.7866888 0.41062003 0.1982465 0.731494
-0.48708057 -0.095768146 0.59767675 0.37754384 -0.1276615 -0.312791 -0.3682895 0.3309728
-0.28431177 -0.13675071 0.91842276 0.28650713 0.560886 -0.11978568 -0.010013941 -0.28046113
0.228905 0.24719094 -0.24097793 -0.04741189 0.19602528 0.35640064 -0.17116073 -0.15167402
-0.44989333 0.08374315 -0.11674528 -0.30635908 0.41127548 0.2704125 0.4794987 -0.4219048
0.46816906 0.040664602 0.18089236 0.45349613 0.12878537 0.5143367 -0.5412594 0.22246253
-0.31376296 0.33943018 -0.10894194 0.14022118 -0.6255538 -0.5031982 0.022419935 -0.11822508
-0.518867 -1.0099407 -0.005460012 -0.04665656 -0.49786323 0.45713997 -0.12531516 -0.40628225
-0.29453605 -0.2290778 -0.3855051 0.6386342 0.25153774 -0.0042496435 0.7019317 -0.30444366
-0.49967223 -0.028237335 0.7351838 0.18921804 -0.05768965 -0.0031342402 0.33789977 -0.69839746
0.67376095 -0.4253265 -0.06046878 0.04419933 -0.2879337 -0.45129648 -0.17950583 0.5409609

model.encoder_variable_selection.single_variable_grns.time_varying_feature.fc2.bias f4 [16]
00000000: ba49 963c 0b22 883e 9d2e 18be b63a 203e
00000010: 7f05 6fbe f129 383e 236a 4cbe 300c 4e3e
00000020: 5d61 1ebe 91d1 533e 9d83 4f3e 3b4f a1bd
00000030: 2bc1 54be 13c4 3abd 38ff 47be aa25 373e
0.018345702 0.26588473 -0.14861532 0.15647396 -0.2334194 0.1798475 -0.19962363 0.20121837
-0.15466829 0.20685412 0.2026505 -0.0787644 -0.20776813 -0.045597147 -0.19530952 0.17885461

model.encoder_variable_selection.single_variable_grns.time_varying_feature.gate_norm.glu.fc.weight f4 [64, 16]
00000000: cda6 623d e8c0 b2be 1fdf b73e 1628 63be
00000010: 2603 debb bb28 613d 992f 8f3e d855 df3e
00000020: 33fd 14be b843 d7be ccaf 453e ab86 6d3d
00000030: 11cf bebe c572 52be 947f cc3e acb6 d1be
00000040: dc49 833e 8cf1 1a3e dda9 b43e c11b 203e
00000050: 5744 893e 2fbe abbe 23a4 d13d 2b24 c2bd
00000060: 67fb 9ebd 3653 01be 8652 ec3b 030e d43e
00000070: e12b 20bd 4e10 af3e 2e7f 5ebe a9c6 b93e
00000080: 8a4e 2fbe cecc f6be c120 d6bd 2987 87be
00000090: 8bf9 04bd 8e21 483d e2ab 093e c719 873e
000000a0: d787 c8be d34b 1cbd c7e8 afbd 8ce7 1ebe
000000b0: 5aaf 44bd d930 22be d4b9 ee3e 3e38 6fbe
000000c0: faf5 61bd 6796 863e 4b1d ab3d babf 453e
000000d0: 6a0a 2a3e 234f 94be d837 3ebe 4b81 88be
000000e0: e4c9 c63d fe6a c83e 90ce cdbc 61cf bd3e
000000f0: 03f7 833e 8e75 5b3e 1656 bdbe 9c54 cf3e
00000100: 98bd a9be 8eee 9abc 4138 a53e 74dd 77be
00000110: 476d 98be 73b7 463e 21fd 86bd 3e6a 123b
00000120: 796c 573d 420d 87be fd18 3e3e a5b2 2c3e
00000130: 0243 0fbe bce6 31be a0fe bebd 1021 52be
00000140: 8089 c93d cfd0 ec3e 59c7 863e d353 fc3d
00000150: 9e43 9d3d b7f3 e7be f9a6 00be f5ee 85bd
00000160: 93d9 d33d 3e69 62be 85c8 b53e b43e dc3e
00000170: 4f25 94be 86ed bb3d 8607 7dbe 4368 d63d
00000180: 174a ca3e 7ca2 cb3d 1c81 2c3e 4f20 b1be
00000190: f7e7 68be e06e 8bbd b2ef 42be 3e5a 41be
000001a0: 7180 2cbc 4447 5b3b c30b 4fbe ca86 babd
000001b0: 2ed6 ccbe 4dc4 253e d346 f63d 2620 17be
000001c0: 47b8 5bbc 9fed b8be 87e5 8e3e 0602 bbbe
000001d0: 5e13 1e3d fe2d f4bc c7d9 553e efb5 4c3e
000001e0: f5cf 8ebe 8c09 a2be d128 4abc d80f 563c
000001f0: ad30 e7bd e079 d2be 32e3 9e3e 568f 9abe
00000200: 810e 8d3d 5104 313d 0a13 e4be 726a 6b3e
00000210: fc14 e83e f3ed 8dbd 4286 b2be 3637 bcbc
00000220: 0be6 813d 7375 403e a117 ab3d eefc db3e
00000230: e76a cf3d cc15 1a3e 17db 98be 1050 813e
00000240: 7708 5fbd 6298 bcbe 8df9 aabe 2dcc 263d
00000250: a1dd f73d 66cf 893e b959 4b3e 4e9c 513e
00000260: 1b8d 0cbe fc28 ffbd 721d a4be 34d9 b7be
00000270: bb1f 593e dbee 21be 7dc2 fb3e 6a38 8d3e
00000280: f62f 903e 9681 9dbd 5ab0 a33d 6a6a 44bd
00000290: 8871 013e 0525 16be b490 593d ce3c cebd
000002a0: e4c4 903e 6727 ebbe 531f af3d 3070 1c3e
000002b0: fbae 8ebc 8f9f 923e 433e 8fbe 6040 513b
000002c0: 4ee8 d93d 0f02 59be e58b 7a3e a57c bebe
000002d0: be4d 0abe 24d2 36bd fba6 c43e f0af 1a3e
000002e0: 1f46 56be 7580 d0bd 3f3a 563e d279 d1be
000002f0: 49ff 673d 4d1a 8d3d 7aef d33e a13a 6d3d
00000300: 89d9 363e 1955 e0bc 7a65 163e 80cf b53d
00000310: c8ad 54be d2fd 943d 436d c23d 10f2 9ebe
00000320: b8cb 723d 216f d0be 356a be3e fd6b 6cbc
00000330: 5c6f 9bbd ea7f 85be b617 f83d 9f05 08bc
00000340: 8404 cb3e 4ad3 093e 7a84 063d 2c54 c53e
00000350: aa14 963e bcb8 3ebd 6bc1 803d 3de3 703d
00000360: e0fb 643e b103 95bc 3f1e d5be e591 ac3e
00000370: c922 143d 29c6 71bd 9c68 8cbe c506 9d3e
00000380: 2c0a 8a3d 7a97 833c 900a 183e 11c0 91bd
00000390: 3a30 8abe eb04 793e cf62 4bbd 8c91 933d
000003a0: 7e9c bcbe b8dc edbd d8dd f4bc 2e3f 35bc
000003b0: a5f8 ccbe 76b7 2e3e c4cb a13e 9cd4 5a3c
000003c0: 9be2 32bd 138b 67bd 4683 79bd d37d 813d
000003d0: 4cf1 ccbe ca5a ca3e 5656 273e 8631 d63d
000003e0: 4b24 11be abca 94bd beb8 c23e d9ca a2be
000003f0: 8fc9 d2be fea0 0cbe 0f62 7f3e fc07 31be
0.055334855 -0.349128 0.35912415 -0.2218326 -0.0067752777 0.054970484 0.27966002 0.4362018
-0.14549713 -0.42043853 0.19305342 0.057989758 -0.37267354 -0.20551594 0.39941084 -0.4095968
0.25642288 0.15131205 0.35285845 0.15635587 0.26809952 -0.33543536 0.10236385 -0.09479555
-0.07762795 -0.12629399 0.007211986 0.4141694 -0.039104346 0.34192127 -0.21728203 0.36284378
-0.17119804 -0.4820313 -0.10455466 -0.26470307 -0.032464545 0.048860125 0.13444474 0.26386854
-0.39166138 -0.03815825 -0.08589321 -0.15518016 -0.04801879 -0.15838946 0.4662615 -0.23361298
-0.055166222 0.26286623 0.083551966 0.19311419 0.16605535 -0.28966627 -0.1857599 -0.26661143
0.09706476 0.3914413 -0.02512291 0.3707228 0.25774392 0.21431562 -0.3697974 0.4049424
-0.3315246 -0.01891258 0.3226948 -0.24205571 -0.29770872 0.19405918 -0.06591249 0.0022341157
0.052593682 -0.26377302 0.1856422 0.16865022 -0.13990405 -0.17373174 -0.093259096 -0.20520425
0.09840679 0.46253058 0.26323965 0.12320676 0.076789126 -0.45303127 -0.12563695 -0.06539718
0.10344233 -0.22110459 0.35504547 0.4301659 -0.28934714 0.091761634 -0.24709901 0.10469105
0.3950965 0.09943101 0.16846126 -0.34594962 -0.22744738 -0.06808257 -0.19036749 -0.18882081
-0.01052867 0.0033459226 -0.2021933 -0.0910774 -0.40007156 0.16188164 0.120252274 -0.14758357
-0.013410634 -0.3611879 0.2790949 -0.3652498 0.03859269 -0.029807087 0.20883857 0.19991277
-0.27893034 -0.3164791 -0.012338833 0.013065301 -0.11288581 -0.41108608 0.3103271 -0.30187482
0.06887532 0.043217007 -0.44545776 0.22989824 0.4532851 -0.06930151 -0.34868056 -0.022975545
0.06342705 0.18794803 0.08354116 0.42966408 0.10127812 0.15047377 -0.29854652 0.25256395
-0.054451432 -0.3683501 -0.33393517 0.04072206 0.12102819 0.26916045 0.19858445 0.20469782
-0.13725702 -0.12458989 -0.32053715 -0.359079 0.2120351 -0.15813772 0.4917182 0.27582103
0.2816159 -0.07690732 0.07992621 -0.047953047 0.12640965 -0.1466256 0.053116515 -0.10070191
0.28275216 -0.459285 0.085508965 0.15277171 -0.017417422 0.2863736 -0.2797719 0.003192924
0.10640012 -0.21192192 0.24467428 -0.3720447 -0.13506219 -0.044634 0.38408646 0.15106177
-0.20925187 -0.10180751 0.20920657 -0.40913254 0.056639943 0.06889782 0.41393644 0.05791724
0.1785642 -0.027384328 0.14687148 0.08877468 -0.20769417 0.07274975 0.09493496 -0.31044054
0.059276313 -0.40709785 0.37190405 -0.014430043 -0.075895995 -0.26074153 0.121138975 -0.008302121
0.39651883 0.13459507 0.032841183 0.3854078 0.2931264 -0.046562895 0.062868915 0.05881046
0.22361708 -0.018190237 -0.41624638 0.3370506 0.036165986 -0.05902687 -0.2742356 0.30669227
0.067402214 0.01606344 0.1484778 -0.07116712 -0.2698992 0.24318282 -0.049654778 0.07205495
-0.36838144 -0.116143644 -0.02989094 -0.0110624265 -0.4003345 0.17062172 0.31600773 0.013356354
-0.04367314 -0.056529116 -0.060916208 0.06322827 -0.40027845 0.39522392 0.16341528 0.104586646
-0.14174001 -0.07265218 0.38031572 -0.31795385 -0.41169402 -0.13733289 0.2493975 -0.17288202

model.encoder_variable_selection.single_variable_grns.time_varying_feature.gate_norm.glu.fc.bias f4 [64]
00000000: c7e4 32be 34dd 243e d953 62be 0d41 283e
00000010: a059 05be 6ef3 b83c 53bd 603d 2cfb 37be
00000020: 447f 573e 753b f5bc ddc0 c13d bc51 2bbe
00000030: 1ee1 3dbe 67ff 293e 312f 0dbe 73c9 1ebe
00000040: 722a 38be d658 163e 1907 313e ff4b 12be
00000050: 52fa 363e 4b8f d9bd a7f9 1bbe 1c8b 2ebe
00000060: 4b13 333e f547 433e 8964 3fbe 3c95 2f3e
00000070: d453 4e3e e17a 5abe 15bf 39be 282b 093e
00000080: daf5 333e 4771 14bd 6352 c5bd 6797 253e
00000090: a418 a93d cd56 283e f548 89be f09f 673e
000000a0: 1efc 24be 1693 4e3e 01a8 23be 549c 29be
000000b0: e7d1 51be 54f6 183e 7df6 34be 1b29 203e
000000c0: 7436 2f3e e5e3 03be 9e6b 32be 2d5b 8b3d
000000d0: 2e67 893e c676 123d bb7c 18be 2732 3dbe
000000e0: b75b 20be 6a05 2b3e ec23 20be 150f 2ebe
000000f0: 497c 8dbd 4c1e 18bd 5bff 3a3e dd3c 663c
-0.17470084 0.16100007 -0.22102298 0.16431065 -0.1302247 0.022577014 0.054868054 -0.17966908
0.21044642 -0.029935578 0.09460614 -0.16730398 -0.18542907 0.16601335 -0.13787533 -0.15506534
-0.17984942 0.14682326 0.17287864 -0.14286803 0.17868927 -0.10623034 -0.15231954 -0.17045254
0.17487828 0.19070418 -0.18690695 0.17146772 0.20149165 -0.21335937 -0.18139298 0.13395369
0.17574254 -0.036240842 -0.09634855 0.16171037 0.08256653 0.16439362 -0.26813474 0.22619605
-0.161118 0.20173296 -0.15982057 -0.1656354 -0.20490228 0.14937717 -0.17672153 0.1564068
0.17110616 -0.12879904 -0.17423865 0.068045 0.26836532 0.035757802 -0.14891331 -0.18476163
-0.15659986 0.16701284 -0.15638703 -0.16997941 -0.06908471 -0.03713827 0.18261473 0.014052597

model.encoder_variable_selection.single_variable_grns.time_varying_feature.gate_norm.add_norm.norm.weight f4 [32]
00000000: 5aea 623f 1701 933f 8bbf 503f d0a5 963f
00000010: 6fe4 693f 24da 933f a2c6 6a3f 929e 993f
00000020: ab73 4f3f 93e2 993f 2499 6d3f 28d3 953f
00000030: 0269 533f d835 953f 8fcd 593f 74bf 553f
00000040: 1886 6d3f b1c5 8c3f b8ea 953f b412 903f
00000050: 3253 553f 462b 833f f1ed 8f3f f4ed 953f
00000060: ee71 583f 09be 883f ed95 513f 4961 7b3f
00000070: 5e58 4f3f 56e3 9e3f 9603 983f 4a38 913f
0.8863884 1.1484708 0.8154227 1.1769352 0.91364187 1.1550946 0.9170934 1.2001517
0.8103587 1.202227 0.928118 1.1705065 0.82582104 1.1657057 0.8507928 0.8349526
0.92782736 1.0997831 1.1712255 1.1255708 0.8333007 1.0247581 1.1244489 1.1713243
0.8454884 1.0682994 0.81869394 0.9819532 0.8099421 1.2413127 1.1876094 1.1345303

model.encoder_variable_selection.single_variable_grns.time_varying_feature.gate_norm.add_norm.norm.bias f4 [32]
00000000: 409c 36be 5e5d 253e a9a6 71be c3da 303e
00000010: 580f febd 23be 8c3e 53a2 193d 7459 47be
00000020: c7e7 5c3e 197e 34bd 8d71 e13c abef 2fbe
00000030: 2d73 47be f619 2e3e ffdb f0bd cb11 1ebe
00000040: 35c0 23be 6bed 0a3e e7ba 2e3e 17f0 1bbe
00000050: 9fa9 383e be78 27be 22f5 fdbd d410 1bbe
00000060: ba04 3e3e 74b8 273e a52e 4bbe 395c 383e
00000070: 2139 473e c4f8 66be e1b3 3dbe 85e7 143e
-0.17833042 0.16148898 -0.23598732 0.17270951 -0.1240527 0.27488813 0.03750832 -0.19467717
0.21572791 -0.04406557 0.027519966 -0.1718127 -0.1947753 0.17002091 -0.11760711 -0.15436475
-0.1599129 0.1356713 0.17063485 -0.15228306 0.18033455 -0.16354653 -0.12400271 -0.15143138
0.1855649 0.16378957 -0.19842012 0.1800393 0.19455387 -0.22555834 -0.1852565 0.14541443

model.encoder_variable_selection.single_variable_grns.target.resample_norm.mask f4 [32]
00000000: e2b1 31be 29c8 2bbe 6552 633e 16e9 33be
00000010: 5da8 293e 133d 5dbe 76d9 843e 6aec 423e
00000020: 52e6 5d3e 2bdf 65bd b6c1 1dbe d4fc 273e
00000030: 6228 113e cec4 33be 0642 133e 2394 223e
00000040: d2aa c03d df79 1f3e f81c 2d3e 7adf 21be
00000050: 6a04 333e 5481 663e 64f7 1c3e 3045 3f3e
00000060: a7cb 37be cf62 aebd ed59 53be 4d75 2e3e
00000070: 0bb4 71bd c7c2 513e 4b3f 533e 9f15 1cbe
-0.17353013 -0.16775574 0.221994 -0.17569384 0.16568132 -0.21605329 0.2594716 0.19035497
0.21669891 -0.056121033 -0.15405926 0.1640504 0.14175561 -0.17555544 0.14380655 0.15876822
0.094075814 0.15573834 0.16905582 -0.15807906 0.17482153 0.22510272 0.15328747 0.18678737
-0.17948781 -0.0851494 -0.20639773 0.17036934 -0.059009593 0.20484458 0.20629613 -0.15242623

model.encoder_variable_selection.single_variable_grns.target.resample_norm.norm.weight f4 [32]
00000000: e65b 543f b7cc 953f dac9 9b3f 36a4 533f
00000010: 4cca 953f 1348 473f 93ed 9c3f 02d9 503f
00000020: ad11 9b3f d2a7 803f 556f 593f 68b6 953f
00000030: 40c4 943f 7785 533f 247a 923f f63c 563f
00000040: 083b 933f ba7f 943f e6f6 953f 077c 5a3f
00000050: 50a1 963f 0ce8 493f 4480 933f dc27 983f
00000060: 0c6e 523f 69da 983f 8567 493f ef39 983f
00000070: 7872 753f d59b 993f 87e7 993f d8b6 8d3f
0.82952726 1.1703099 1.2170975 0.8267244 1.1702361 0.7784435 1.2260002 0.8158113
1.2114769 1.0051215 0.84935504 1.1696291 1.1622391 0.82625526 1.1443524 0.8368677
1.150239 1.1601479 1.1715972 0.853455 1.1767979 0.788697 1.1523519 1.1887164
0.8219917 1.1941653 0.78673583 1.189268 0.9587779 1.2000681 1.2023782 1.1071424

model.encoder_variable_selection.single_variable_grns.target.resample_norm.norm.bias f4 [32]
00000000: df59 2ebe 41d5 2d3e a594 5cbe d487 313e
00000010: 7790 2ebe 2dab 603e 9c69 64be eab5 42be
00000020: fa37 573e 79ad 633c 3afb 143e 2790 2dbe
00000030: 2548 26be bb0a 323e 9c26 17be ce1c 25be
00000040: 22d6 183e 6ac6 233e 9ed0 2f3e 5a76 17be
00000050: b33a 353e f33c 64be 7504 21be b41c 41be
00000060: e9e4 373e c20b 473e a3ec 59be 5196 423e
00000070: 81e7 4d3d c4e1 4dbe 73fd 51be 0d03 183e
-0.1702647 0.16975881 -0.21541078 0.1733697 -0.17047296 0.21940298 -0.22305912 -0.19014707
0.21017447 0.01389634 0.1454896 -0.16949521 -0.16238458 0.17386906 -0.14760822 -0.1612427
0.14925435 0.15993658 0.17169425 -0.14791241 0.17698173 -0.22288875 -0.15724356 -0.18858606
0.17958416 0.19438079 -0.21281676 0.19002654 0.050269607 -0.20105654 -0.2050684 0.14844914

model.encoder_variable_selection.single_variable_grns.target.fc1.weight f4 [16, 16]
00000000: 36ea cbbe 1089 c73d c0d3 753e 22c3 59bd
00000010: d4c4 63be 60eb c63e 6b33 04be 9e86 7c3d
00000020: 6d2c 1a3e 5558 eebd c87c a9be 9e19 3bbd
00000030: d40d 043f 3e6a dc3e 5f22 2f3f c424 7b3e
00000040: e0d1 023f 8ac1 a0be 6104 8fbe bf28 73be
00000050: 5cd1 18be 395e 733e 609b 32bf eb00 0ebf
00000060: df6c ec3e 7fc0 8a3d d591 abbc d2c2 1bbf
00000070: 0e1e a1be c4d4 7bbe 5ff8 43be 00c1 d53d
00000080: 18ba 713f 0f76 df3d c0ab a13e c6c1 b43e
00000090: f3c8 393e a1f7 ff3e b50c 2a3e 78d1 64bf
000000a0: a853 873b 8796 fbbd 1397 143c 529f 11be
000000b0: 8a4c eebd 3ba2 85be 47d1 ad3e 0543 ebbe
000000c0: 2f5f ae3d 72a6 babe d28c 4dbd 4f9b c3be
000000d0: 2be6 0e3e ea86 ae3e d82d f9bd f35d 6c3e
000000e0: fead 8a3e b92a 56be 7df6 32be 2469 4ebe
000000f0: bd5c b53e b3c4 523e ccca 4abe 20e6 c2be
00000100: 07a5 60be 2b03 8e3e 9eb4 e43c 57aa d13d
00000110: 3a02 44be 32b3 aabe 603a 3b3e f738 f83d
00000120: d440 52be 2bfa 2abf a065 ecbd 39cd 1d3e
00000130: a6fe ad3e c776 b5bd 13a9 b93e f11d 4d3e
00000140: fdcf 8bbc 49c6 ddbe 8d38 1b3e 2e6a 8ebf
00000150: 2f7a 803e 6390 1abf 0fa4 de3e af83 05bf
00000160: caea d1bd e74a 703e 7d01 3abd 8b83 1abe
00000170: f4ea abbe b66c da3e a66d 293b c82c fcbe
00000180: b75d 703e a0ff 66bd 184a 0bbf 6834 5dbe
00000190: 9819 c33e fb2b 51bf 285d 2a3e d2cb bd3e
000001a0: 6264 3cbe aaf3 163f bb20 54bf f20f 01bf
000001b0: d52b 373c 8408 093f e84f 0ebf b3d4 b0be
000001c0: c131 00bf 1941 843e 90c9 07bf 3faa 00bf
000001d0: 081c 87be c437 3c3f 0629 353e 1834 a63e
000001e0: f331 2bbf 2890 0d3f 2ce0 28bf 8d87 233e
000001f0: 9d8b 9abe 890a a3be 0f28 1c3f f4e7 d9bd
00000200: 7d8a b03e e42c 563e a198 023f 73aa 7e3e
00000210: 14a9 c9be 1bc1 0abe 694b 4abf 7ec7 2d3f
00000220: 38b8 f93e 7561 52bf 5ed2 dc3e b603 323f
00000230: 3d7f d63e 6a2f 16bf a26c e4be fede 023e
00000240: 08b1 ebbe a1db 80be ea20 f43e bf7e 66be
00000250: e072 66be 7d44 c33e 9b64 eb3c 8556 bb3e
00000260: 3488 ef3e 2dbd 14bf 050e 34be bcb4 1dbe
00000270: aabc 0ebc 3a6d bd3e d924 813e 7528 3cbe
00000280: 3702 253e 324d 6a3e 5e75 a6bd 46fc f03e
00000290: 766f 21bf 59bb 853e 8fa3 20bf 9ac1 aebe
000002a0: fb90 793e f1a1 013f 5cd6 a73d 5483 163e
000002b0: 58b3 bc3d 41b1 14be 46a7 b83d 7693 b83e
000002c0: db22 c6bb 967c 23bf 2090 25bf 43f3 17bf
000002d0: 50f3 e63d 9396 12be 25d5 aabe 0702 4abe
000002e0: 5e7b d33e 8252 833d 3ca4 7b3e 2b0c ccbd
000002f0: a66b 2f3f 8181 bc3c 7c3c e23e deaf e33e
00000300: 1968 62bd 797f 013f 591c 143e 76c7 2c3e
00000310: 93d7 3abf 5679 6abe 76b8 6dbe b0ca 8d3e
00000320: 5fc2 cdbe 35b7 06bf 04a8 913e 2a3f 0f3f
00000330: d598 833e 573b 01be 480c 023d 572e c3bd
00000340: 0f62 27bf e98e 9f3e 2c0a a23e d56b a33e
00000350: 88cf 3cbf 6838 0f3f 9688 0b3f 56e7 52bf
00000360: 3c91 543e 1a87 1e3e 827c 8dbe 4164 cebe
00000370: 01c5 47bf 7309 e73d af69 60be ff39 07be
00000380: 4b0c 1ebf 69bb 93be fead c03e cb2d 90be
00000390: d1e5 68be 4126 893e 8e6b 2d3c f044 5a3d
000003a0: ed74 edbe fd8f cdbe 37bc c0ba 68bb 443e
000003b0: 70e5 883f d7b2 5dbf 8545 c73d 691e 44be
000003c0: ce51 853e 0d34 b13d 479c c6bd 9a61 a23e
000003d0: e456 d73e 4ae0 41be 4279 933e af3d 4dbe
000003e0: 10c1 d73e 1738 153e f54c 5fbd d4d6 0dbe
000003f0: 39fb 08be c553 ab3d 7761 13be f625 3d3e
-0.39827126 0.097429395 0.24006557 -0.05316461 -0.22243053 0.38851452 -0.1291024 0.06165182
0.1505601 -0.11637942 -0.33103013 -0.045678727 0.515836 0.43049806 0.6841182 0.24525744
0.51101494 -0.3139766 -0.27933028 -0.23746012 -0.14923614 0.23766412 -0.69768333 -0.5547015
0.46176812 0.06774997 -0.020943562 -0.6084415 -0.31468242 -0.24592882 -0.19137715 0.104372025
0.9442458 0.1091119 0.31576347 0.35304087 0.18143062 0.49993613 0.1660641 -0.89382124
0.0041298456 -0.1228457 0.009069222 -0.14220932 -0.116356924 -0.26100335 0.33948728 -0.4594957
0.085142486 -0.36455113 -0.050183125 -0.3820443 0.1395499 0.34087306 -0.12166947 0.23082714
0.2708587 -0.20914735 -0.1747684 -0.20157295 0.35422316 0.20582847 -0.19803923 -0.38066196
-0.21937953 0.27736792 0.027918156 0.10237568 -0.19141474 -0.3333984 0.18283987 0.1212024
-0.20532542 -0.66787976 -0.11542821 0.15410317 0.33983344 -0.088605456 0.36261806 0.20030953
-0.01706695 -0.43315342 0.15158291 -1.1126153 0.2509322 -0.60376567 0.43484542 -0.5215406
-0.102498606 0.23466073 -0.045411576 -0.15089242 -0.33577693 0.42661065 0.002585271 -0.49252915
0.2347325 -0.056396127 -0.54409933 -0.21602023 0.38105464 -0.81707734 0.16637099 0.37069565
-0.18397668 0.5896555 -0.8286244 -0.50414956 0.011179884 0.5352862 -0.5559068 -0.34537277
-0.5007592 0.25830916 -0.53041935 -0.50259775 -0.26388574 0.7352259 0.1769143 0.3246162
-0.6687309 0.5529809 -0.6596706 0.15969677 -0.3018464 -0.31843975 0.60998625 -0.10639945
0.34480658 0.20915562 0.51014143 0.24869709 -0.3938681 -0.13550226 -0.79021317 0.67882526
0.4877336 -0.8217996 0.43129247 0.6953691 0.4189395 -0.586661 -0.4461413 0.12780377
-0.46033502 -0.25167564 0.4768136 -0.22509287 -0.22504759 0.3813819 0.028734496 0.36589447
0.46783602 -0.5810116 -0.17583473 -0.15400976 -0.008711973 0.36997396 0.25223425 -0.18374808
0.16114126 0.2288101 -0.08127855 0.4706747 -0.630607 0.26119497 -0.6274957 -0.3413208
0.24371712 0.5063773 0.08195183 0.14698535 0.092138946 -0.14520742 0.0901628 0.36050004
-0.0060466356 -0.6386198 -0.6467304 -0.5935556 0.11276877 -0.14315252 -0.3336574 -0.19727336
0.4130506 0.064122215 0.24574369 -0.09963258 0.68523633 0.023010971 0.4418677 0.44470114
-0.055275057 0.5058513 0.14463939 0.16872963 -0.7298519 -0.22897848 -0.23214898 0.276937
-0.40187356 -0.526233 0.28448498 0.55955756 0.2570254 -0.12620293 0.031749994 -0.09530323
-0.65384 0.3116372 0.31648386 0.31918207 -0.7375417 0.55945444 0.5450529 -0.8238424
0.20758528 0.15481225 -0.27634054 -0.40310863 -0.7803498 0.11281099 -0.21915315 -0.13205718
-0.6173751 -0.2885392 0.37632746 -0.28159937 -0.22743918 0.26786998 0.010584725 0.0532884
-0.4637827 -0.40148917 -0.001470453 0.19212115 1.0695019 -0.8660101 0.09730057 -0.19152226
0.26038975 0.08652506 -0.09697776 0.3171509 0.4205848 -0.18933216 0.2880345 -0.20043062
0.42139482 0.14572178 -0.05451675 -0.13851482 -0.13377084 0.08365587 -0.14392649 0.18471512

model.encoder_variable_selection.single_variable_grns.target.fc1.bias f4 [16]
00000000: 76f8 45be 7eac 493e 33cf 6f3e 844a 7e3e
00000010: e9a6 30be 487d 6e3e aa8d d0ba 45e2 12be
00000020: 7a6b 0bbe 5ecf 003e a097 82bd e02f 143e
00000030: 91cf 28be 98ed 33be e578 53be 0441 373e
-0.19333062 0.19694707 0.23418884 0.24833113 -0.17251171 0.23289979 -0.001591136 -0.14344127
-0.13615218 0.12579104 -0.063765764 0.14471388 -0.1648543 -0.17571104 -0.20651586 0.17895895

model.encoder_variable_selection.single_variable_grns.target.fc2.weight f4 [16, 16]
00000000: 93ac fd3e f722 1e3f da05 a7be 91bb 89be
00000010: b90a b83e 6395 0bbe 8fd6 933e 5c17 96be
00000020: 86aa bdbc e6cf f7be ac47 4c3d e34e cd3e
00000030: 2674 93be 6404 04bf 0639 863d d81e ce3e
00000040: e592 5f3e fc09 443f fa02 ae3e 6781 07bf
00000050: 0e06 96bc 2171 5fbd 1ebf 1c3e b304 27bf
00000060: 9a34 e43e 1ed1 4abf 1e05 e0be f40e dabe
00000070: 8cc9 653d c91b b53e ee77 9fbe e8dd df3e
00000080: a5d2 453e be1f 64be f0cb bf3e a6b0 1abd
00000090: 7d22 023e dd08 fc3e 5509 8b3e e42a f93e
000000a0: 01ab 963d 6cb8 d6be c427 8bbe 6c9f d0bc
000000b0: 7076 b43d 376a 0dbd 244e 0f3d 2f46 d43d
000000c0: e56a 873e 606b bf3b 6173 793d 2d19 063e
000000d0: 9056 77be 5b66 33be 2c13 4c3e c8a5 cbbe
000000e0: 3987 a5be 641a bdbe 5d30 a4be 959d b8bd
000000f0: c2dc 513d 627b 52bf c1a5 8d3e 1516 8a3e
00000100: aa88 88bd ef66 c73d faec 253e 54ed 04bf
00000110: fd91 a63e e71e eb3e 1af8 aa3e 227d 38bf
00000120: 25e1 b43e 6901 0b3d f0ae e9be fa3c 523e
00000130: 4c2e 26be d919 e0be 71d9 303e 2c93 27be
00000140: 17e4 94be daac 8abf 2f34 753e f9ba f4be
00000150: 1393 d4bd 7409 a13c ba89 1cbf 8a81 8d3c
00000160: 6d22 d0be 926a 0d3f 0354 113c e184 23bf
00000170: 81fe ab3e 7049 c73e 0c20 ddbd d450 643e
00000180: e989 a8be 0a93 5fbe 2f97 17bd 3417 003f
00000190: 0cda efbe 423e 0dbf cc21 b03d 66be 89be
000001a0: c845 053e e65c 3ebe f068 183e 8253 303f
000001b0: dafc 25be fcaf 853e f4d6 cf3b 2dd8 373f
000001c0: d48e 80be 9008 373e 7390 6dbe 46a9 743f
000001d0: 17af 893f 3a64 0d3f 4aa8 9bbe 56c1 ee3d
000001e0: 05e8 08bf 8595 efbd 191a 753e 1495 57bd
000001f0: 1f41 4a3e 3558 a3be ad76 65bf 1bcf d13d
00000200: 9cae b3be 61e9 1abe 274b 763e 93c8 b0be
00000210: 08d6 6abe 33fe c53e 8154 19bf f20f ebbe
00000220: a017 12bf 4665 863b c756 39be 2d89 a4be
00000230: 42df 623c 5cc4 f63e 44b3 ae3d aa26 0d3f
00000240: a3cf 83be b4e7 cf3e 0e9c 12bf 511f 003f
00000250: 8bd8 f13e dcf7 e8bc a284 5c3f 5ea5 0ebf
00000260: a903 be3d a532 abbf d3a6 d33e 5c42 47be
00000270: b359 123e ebdb 70bf 43db 8fbe ded6 b1be
00000280: 162b eabd 671c cdbe f722 a9be 85cc cbbe
00000290: 6a69 1bbf e728 603e 4adc ff3e ffa2 b7be
000002a0: 5473 d53e ec90 263f 86ff 52bd c6a1 02bf
000002b0: 3e17 c53e d9f2 8a3f 2c25 bd3d 931a c03d
000002c0: 4ab7 cabd d58d 26be 8f01 603d 0002 13bf
000002d0: a992 77bd 7f19 613c e1a1 863c 6006 f33e
000002e0: 8869 513d f882 bc3d b6f4 0c3f 0cee 8bbe
000002f0: 5da7 a2bd a33d 573e 74cf 91be 0f87 db3e
00000300: f622 283f 0c42 43be 99eb 0ebe b323 5ebe
00000310: 5946 bb3e 4b00 7bbe 05c3 42bd 70d7 e6be
00000320: df3d 183d 7984 8fbe a8bd e3bd e4b3 d43e
00000330: 7d05 1cbe b598 94be c67e ea3d ca1e 9abe
00000340: 7e77 a1bc 209d 0dbe 428d 6d3f d2d1 f33e
00000350: 4324 fb3c a110 003f 107e 08bd 9f7b e83e
00000360: 3fa8 adbe afc6 12bd cd73 c0be bfda 91be
00000370: 9639 b93d 071f 023d 102b 0ebf 48f7 673e
00000380: f02f 0b3f 0450 173f 8ea1 f7be 0a20 c0be
00000390: 8138 bf3e e345 9f3d 6bec 7d3e 1510 863d
000003a0: 8d39 a3be caf3 933c ad29 03be 3678 263e
000003b0: 4bf7 cebe a150 20be 3896 5a3e e0c7 52be
000003c0: 6c79 223e f53b 013f d070 ab3e 788e dd3e
000003d0: 221d a8bd 3895 3d3e 9802 2b3d d1ef 593e
000003e0: 133f 56be ea28 afbd 26a3 06be 3eff 083e
000003f0: c44a e0bd 481f 27bf f251 9d3e c0c0 a73d
0.49545726 0.617721 -0.32621652 -0.26900914 0.3594568 -0.13631205 0.28874633 -0.29314697
-0.023152601 -0.484008 0.04987304 0.40099248 -0.28799552 -0.515692 0.06553845 0.40257907
0.2183338 0.76577735 0.33986646 -0.5293183 -0.018313434 -0.054551248 0.1530728 -0.65241545
0.44571382 -0.7922534 -0.43753904 -0.42589533 0.056100413 0.3537276 -0.31146187 0.4372399
0.19318636 -0.22277734 0.3746028 -0.03776612 0.12708469 0.49225512 0.27155557 0.48665535
0.07356835 -0.41937578 -0.27178776 -0.025466643 0.08811653 -0.034525122 0.03498663 0.10364949
0.26448742 0.0058416575 0.06090105 0.13095541 -0.24154115 -0.17519514 0.19929188 -0.3977492
-0.3232973 -0.36934197 -0.32068148 -0.090144314 0.05123592 -0.8221952 0.27665523 0.26969972
-0.066666916 0.0973643 0.1620368 -0.51924634 0.32533255 0.45922014 0.3339241 -0.7206594
0.35328022 0.03393689 -0.4564128 0.20531073 -0.16228598 -0.4376972 0.17270447 -0.16364735
-0.2908027 -1.0834 0.23945688 -0.477989 -0.10379615 0.019657828 -0.61147654 0.017273683
-0.40651265 0.5524074 0.008870128 -0.6387463 0.3359261 0.38923216 -0.10797128 0.22296458
-0.32917717 -0.21833435 -0.037009414 0.50035405 -0.46846044 -0.5517312 0.08600196 -0.26903075
0.130149 -0.18590125 0.1488378 0.6887742 -0.16209736 0.26110828 0.006342763 0.71814233
-0.2510897 0.1787436 -0.23199634 0.9557079 1.0756558 0.5523106 -0.30401832 0.1165797
-0.53479034 -0.116984405 0.23935737 -0.052632406 0.19751404 -0.31903234 -0.8963421 0.1024458
-0.35094154 -0.1512809 0.24052106 -0.34528026 -0.22933209 0.386705 -0.5989457 -0.45910603
-0.570673 0.004101428 -0.18099509 -0.32135907 0.013847174 0.48196685 0.08530286 0.5513712
-0.25744352 0.40606463 -0.5726937 0.50047785 0.47235522 -0.028438501 0.8613988 -0.5572108
0.09278042 -1.337483 0.41338214 -0.19458908 0.1429203 -0.9408557 -0.2809697 -0.34734243
-0.11433999 -0.40060732 -0.3303449 -0.39804474 -0.60707724 0.21890603 0.49972755 -0.35866544
0.4168955 0.65064883 -0.051513217 -0.51028097 0.38494295 1.0855361 0.092356056 0.09380069
-0.09898241 -0.16265042 0.054688986 -0.57424927 -0.0604426 0.013738989 0.016434612 0.474658
0.051126033 0.09204668 0.550609 -0.27330053 -0.07942078 0.21019606 -0.28478587 0.4287648
0.65678346 -0.19068164 -0.13957061 -0.21693306 0.36577109 -0.2451183 -0.047549266 -0.4508624
0.03716838 -0.28030756 -0.111201584 0.41543496 -0.15236469 -0.29022756 0.11449961 -0.30101615
-0.019710299 -0.1382947 0.9279367 0.47621018 0.03065694 0.50025374 -0.033323348 0.45406815
-0.33917424 -0.03583401 -0.3758835 -0.28487203 0.09044187 0.03176787 -0.5553446 0.22652924
0.5437002 0.5910647 -0.48365444 -0.37524444 0.37347797 0.07777002 0.24797218 0.06546036
-0.31879845 0.018060584 -0.12808867 0.16256794 -0.40423045 -0.15655757 0.21346366 -0.20584059
0.15866631 0.5048211 0.33484507 0.43272758 -0.08208682 0.18513954 0.04175052 0.21282889
-0.20922498 -0.085527256 -0.13148174 0.13378617 -0.109517604 -0.65282106 0.30726582 0.08191061

model.encoder_variable_selection.single_variable_grns.target.fc2.bias f4 [16]
00000000: 81ad 163e 5b28 6d3e 3c30 12be 007b 4a3e
00000010: 0c82 4d3e 0936 52be c509 1f3e 601e 46be
00000020: 78c3 50be 6074 483e 994c 4fbe 3ed9 d8bd
00000030: d704 1f3e 1257 2fbe 45c7 fd3d aa48 433e
0.14714624 0.23159926 -0.14276212 0.19773483 0.2006914 -0.20528425 0.1553107 -0.19347525
-0.20387065 0.19575644 -0.20244063 -0.10588311 0.1552919 -0.17123058 0.12391523 0.19070688
